Model: "ResNet34_Alt"
_________________________________________________________________
Layer (type)                 Output Shape              Param #   
=================================================================
input_1 (InputLayer)         [(None, 400, 400, 3)]     0         
_________________________________________________________________
model (Functional)           (None, 13, 13, 512)       21302473  
_________________________________________________________________
conv2d (Conv2D)              (None, 11, 11, 512)       2359808   
_________________________________________________________________
batch_normalization (BatchNo (None, 11, 11, 512)       2048      
_________________________________________________________________
activation (Activation)      (None, 11, 11, 512)       0         
_________________________________________________________________
conv2d_1 (Conv2D)            (None, 9, 9, 256)         1179904   
_________________________________________________________________
batch_normalization_1 (Batch (None, 9, 9, 256)         1024      
_________________________________________________________________
activation_1 (Activation)    (None, 9, 9, 256)         0         
_________________________________________________________________
conv2d_2 (Conv2D)            (None, 7, 7, 128)         295040    
_________________________________________________________________
batch_normalization_2 (Batch (None, 7, 7, 128)         512       
_________________________________________________________________
activation_2 (Activation)    (None, 7, 7, 128)         0         
_________________________________________________________________
conv2d_3 (Conv2D)            (None, 5, 5, 64)          73792     
_________________________________________________________________
batch_normalization_3 (Batch (None, 5, 5, 64)          256       
_________________________________________________________________
activation_3 (Activation)    (None, 5, 5, 64)          0         
_________________________________________________________________
conv2d_4 (Conv2D)            (None, 3, 3, 32)          18464     
_________________________________________________________________
batch_normalization_4 (Batch (None, 3, 3, 32)          128       
_________________________________________________________________
activation_4 (Activation)    (None, 3, 3, 32)          0         
_________________________________________________________________
conv2d_5 (Conv2D)            (None, 3, 3, 6)           192       
_________________________________________________________________
flatten (Flatten)            (None, 54)                0         
_________________________________________________________________
dense (Dense)                (None, 1)                 55        
=================================================================
Total params: 25,233,696
Trainable params: 3,929,239
Non-trainable params: 21,304,457
_________________________________________________________________
(32, 400, 400, 2)
Epoch 1/2000
(32, 400, 400, 2)
(32, 400, 400, 2)
